examples/guess/model.npz (npz, 144456 bytes, 4 tensors)

fc1_weight i1 [256, 256]
0	0xff	-1
1	0xff	-1
2	0xff	-1
3	0x00	0
4	0x00	0
5	0xff	-1
6	0x01	1
7	0xff	-1
8	0x00	0
9	0x00	0
10	0x00	0
11	0xff	-1
12	0xff	-1
13	0x01	1
14	0x00	0
15	0xff	-1
16	0xff	-1
17	0x00	0
18	0x00	0
19	0x00	0
20	0x00	0
21	0x01	1
22	0x00	0
23	0x00	0
24	0x00	0
25	0x01	1
26	0x00	0
27	0x00	0
28	0x00	0
29	0xff	-1
30	0x00	0
31	0x01	1
32	0xff	-1
33	0xff	-1
34	0x00	0
35	0x00	0
36	0x01	1
37	0x00	0
38	0x01	1
39	0x00	0
40	0x00	0
41	0x01	1
42	0xff	-1
43	0xff	-1
44	0x00	0
45	0xff	-1
46	0x00	0
47	0x00	0
48	0x01	1
49	0xff	-1
50	0xff	-1
51	0xff	-1
52	0x00	0
53	0x00	0
54	0x00	0
55	0xff	-1
56	0x00	0
57	0x00	0
58	0xff	-1
59	0x00	0
60	0xff	-1
61	0x00	0
62	0xfe	-2
63	0x00	0
64	0xff	-1
65	0x00	0
66	0x00	0
67	0x00	0
68	0x01	1
69	0xff	-1
70	0x00	0
71	0x00	0
72	0xff	-1
73	0xff	-1
74	0x00	0
75	0x00	0
76	0xff	-1
77	0x00	0
78	0x00	0
79	0x00	0
80	0xff	-1
81	0x00	0
82	0xff	-1
83	0xff	-1
84	0x00	0
85	0xff	-1
86	0xff	-1
87	0x00	0
88	0x00	0
89	0x01	1
90	0x00	0
91	0x00	0
92	0x00	0
93	0xff	-1
94	0xff	-1
95	0x00	0
96	0x00	0
97	0x00	0
98	0xff	-1
99	0x00	0
100	0x00	0
101	0x00	0
102	0x00	0
103	0x00	0
104	0xff	-1
105	0x00	0
106	0x00	0
107	0x00	0
108	0xff	-1
109	0xff	-1
110	0x00	0
111	0x00	0
112	0x00	0
113	0x00	0
114	0xff	-1
115	0x00	0
116	0x00	0
117	0x00	0
118	0x01	1
119	0x00	0
120	0x00	0
121	0x00	0
122	0x00	0
123	0xff	-1
124	0x00	0
125	0x00	0
126	0x00	0
127	0x00	0
128	0x00	0
129	0xff	-1
130	0x00	0
131	0x00	0
132	0x00	0
133	0x00	0
134	0x00	0
135	0x00	0
136	0x00	0
137	0x00	0
138	0x00	0
139	0x00	0
140	0x00	0
141	0x01	1
142	0x00	0
143	0x00	0
144	0x00	0
145	0x00	0
146	0x00	0
147	0x00	0
148	0x00	0
149	0x00	0
150	0x00	0
151	0x00	0
152	0x00	0
153	0x00	0
154	0x00	0
155	0x00	0
156	0x00	0
157	0x00	0
158	0x00	0
159	0x00	0
160	0x00	0
161	0x00	0
162	0x00	0
163	0x00	0
164	0x00	0
165	0x00	0
166	0x00	0
167	0x00	0
168	0x00	0
169	0x00	0
170	0x01	1
171	0x00	0
172	0x00	0
173	0x00	0
174	0x00	0
175	0x00	0
176	0xff	-1
177	0xff	-1
178	0x00	0
179	0x00	0
180	0x00	0
181	0x00	0
182	0x00	0
183	0x00	0
184	0x00	0
185	0xff	-1
186	0x01	1
187	0x00	0
188	0x00	0
189	0x00	0
190	0xff	-1
191	0x00	0
192	0x00	0
193	0x00	0
194	0x00	0
195	0x00	0
196	0x00	0
197	0x00	0
198	0x00	0
199	0x00	0
200	0x00	0
201	0x00	0
202	0x00	0
203	0x00	0
204	0x00	0
205	0x00	0
206	0x00	0
207	0x00	0
208	0xff	-1
209	0x00	0
210	0x00	0
211	0x00	0
212	0x00	0
213	0x00	0
214	0x00	0
215	0x00	0
216	0x01	1
217	0x00	0
218	0x00	0
219	0x01	1
220	0x00	0
221	0x00	0
222	0x00	0
223	0x00	0
224	0x00	0
225	0x00	0
226	0x00	0
227	0x00	0
228	0x00	0
229	0x00	0
230	0xff	-1
231	0x00	0
232	0x00	0
233	0x00	0
234	0xff	-1
235	0xff	-1
236	0x00	0
237	0x00	0
238	0x00	0
239	0x01	1
240	0x00	0
241	0x00	0
242	0x00	0
243	0x00	0
244	0xff	-1
245	0x00	0
246	0x00	0
247	0x00	0
248	0x00	0
249	0x00	0
250	0x00	0
251	0x00	0
252	0x01	1
253	0x00	0
254	0x00	0
255	0x00	0

fc2_weight i1 [192, 256]
0	0xff	-1
1	0xff	-1
2	0x00	0
3	0x00	0
4	0x00	0
5	0xff	-1
6	0x01	1
7	0xff	-1
8	0x00	0
9	0xff	-1
10	0x00	0
11	0x00	0
12	0x00	0
13	0x00	0
14	0x00	0
15	0x00	0
16	0x00	0
17	0x00	0
18	0x00	0
19	0xff	-1
20	0x00	0
21	0x00	0
22	0x01	1
23	0x00	0
24	0x00	0
25	0xff	-1
26	0x00	0
27	0x00	0
28	0xff	-1
29	0x00	0
30	0x00	0
31	0x00	0
32	0x00	0
33	0x00	0
34	0x00	0
35	0x00	0
36	0x00	0
37	0x00	0
38	0xff	-1
39	0x00	0
40	0x00	0
41	0x01	1
42	0x00	0
43	0x00	0
44	0x00	0
45	0x00	0
46	0x01	1
47	0x00	0
48	0xff	-1
49	0x00	0
50	0xff	-1
51	0x00	0
52	0x00	0
53	0x00	0
54	0xff	-1
55	0x00	0
56	0x00	0
57	0xff	-1
58	0x00	0
59	0x00	0
60	0x00	0
61	0x00	0
62	0x00	0
63	0x00	0
64	0xff	-1
65	0x01	1
66	0x00	0
67	0x00	0
68	0x00	0
69	0xff	-1
70	0x00	0
71	0x00	0
72	0x00	0
73	0x00	0
74	0x00	0
75	0x00	0
76	0x00	0
77	0x00	0
78	0x00	0
79	0x00	0
80	0x00	0
81	0x00	0
82	0x00	0
83	0x00	0
84	0x00	0
85	0x00	0
86	0x00	0
87	0x00	0
88	0x01	1
89	0xff	-1
90	0x00	0
91	0xff	-1
92	0xff	-1
93	0x01	1
94	0xff	-1
95	0x00	0
96	0x00	0
97	0xff	-1
98	0x00	0
99	0x00	0
100	0x00	0
101	0x00	0
102	0x00	0
103	0x00	0
104	0x00	0
105	0x00	0
106	0x00	0
107	0xff	-1
108	0x01	1
109	0x00	0
110	0xff	-1
111	0xff	-1
112	0x00	0
113	0x00	0
114	0x00	0
115	0x00	0
116	0xff	-1
117	0xff	-1
118	0x00	0
119	0xff	-1
120	0x00	0
121	0x01	1
122	0xff	-1
123	0x00	0
124	0xff	-1
125	0xff	-1
126	0x00	0
127	0x00	0
128	0x00	0
129	0xff	-1
130	0x00	0
131	0x00	0
132	0x01	1
133	0x00	0
134	0x01	1
135	0x00	0
136	0x00	0
137	0xff	-1
138	0x00	0
139	0x00	0
140	0x00	0
141	0x00	0
142	0xff	-1
143	0xff	-1
144	0x00	0
145	0xff	-1
146	0xff	-1
147	0xff	-1
148	0x00	0
149	0x00	0
150	0x00	0
151	0x00	0
152	0xff	-1
153	0xff	-1
154	0xff	-1
155	0xff	-1
156	0x00	0
157	0x00	0
158	0x00	0
159	0x00	0
160	0x00	0
161	0xff	-1
162	0xff	-1
163	0x00	0
164	0x00	0
165	0x00	0
166	0x00	0
167	0xff	-1
168	0x00	0
169	0xff	-1
170	0xff	-1
171	0x00	0
172	0x00	0
173	0xff	-1
174	0x00	0
175	0x00	0
176	0x00	0
177	0x00	0
178	0x01	1
179	0xff	-1
180	0xff	-1
181	0x00	0
182	0x00	0
183	0x00	0
184	0x00	0
185	0x00	0
186	0x00	0
187	0xff	-1
188	0x00	0
189	0x00	0
190	0x00	0
191	0x00	0
192	0xff	-1
193	0x00	0
194	0x01	1
195	0x00	0
196	0x00	0
197	0x00	0
198	0xff	-1
199	0x00	0
200	0x00	0
201	0xff	-1
202	0x00	0
203	0x00	0
204	0xff	-1
205	0x00	0
206	0x00	0
207	0x00	0
208	0x00	0
209	0xff	-1
210	0x00	0
211	0x00	0
212	0x00	0
213	0xff	-1
214	0xff	-1
215	0xff	-1
216	0xff	-1
217	0x00	0
218	0x00	0
219	0x00	0
220	0x01	1
221	0x00	0
222	0x00	0
223	0x00	0
224	0x00	0
225	0x00	0
226	0x00	0
227	0x00	0
228	0x00	0
229	0x01	1
230	0x00	0
231	0xff	-1
232	0xff	-1
233	0x00	0
234	0xff	-1
235	0x00	0
236	0x00	0
237	0x00	0
238	0x00	0
239	0xff	-1
240	0x01	1
241	0x00	0
242	0x00	0
243	0x00	0
244	0xff	-1
245	0x00	0
246	0x00	0
247	0xff	-1
248	0x00	0
249	0x00	0
250	0xff	-1
251	0x00	0
252	0x00	0
253	0xff	-1
254	0x00	0
255	0x00	0

fc3_weight i1 [128, 192]
0	0xff	-1
1	0x00	0
2	0x00	0
3	0xff	-1
4	0x00	0
5	0x00	0
6	0x00	0
7	0xff	-1
8	0x00	0
9	0x00	0
10	0xff	-1
11	0x00	0
12	0x00	0
13	0x00	0
14	0x00	0
15	0x00	0
16	0x00	0
17	0x00	0
18	0x00	0
19	0x00	0
20	0xff	-1
21	0x00	0
22	0x00	0
23	0x00	0
24	0x00	0
25	0x01	1
26	0x01	1
27	0x01	1
28	0x00	0
29	0x00	0
30	0x00	0
31	0xff	-1
32	0xff	-1
33	0x00	0
34	0x00	0
35	0xff	-1
36	0x00	0
37	0xff	-1
38	0x00	0
39	0x00	0
40	0xff	-1
41	0xff	-1
42	0x00	0
43	0xff	-1
44	0xff	-1
45	0x00	0
46	0x00	0
47	0x00	0
48	0x00	0
49	0x00	0
50	0x00	0
51	0x00	0
52	0x00	0
53	0x00	0
54	0x00	0
55	0xff	-1
56	0x00	0
57	0x00	0
58	0x00	0
59	0x00	0
60	0x00	0
61	0xff	-1
62	0xff	-1
63	0x00	0
64	0x00	0
65	0x00	0
66	0x00	0
67	0xff	-1
68	0x00	0
69	0x00	0
70	0x00	0
71	0xff	-1
72	0x00	0
73	0x00	0
74	0x00	0
75	0xff	-1
76	0x00	0
77	0x01	1
78	0x00	0
79	0x00	0
80	0x00	0
81	0x00	0
82	0x01	1
83	0x00	0
84	0x00	0
85	0x00	0
86	0x00	0
87	0x00	0
88	0x00	0
89	0x00	0
90	0x00	0
91	0x00	0
92	0x00	0
93	0x00	0
94	0x00	0
95	0x00	0
96	0x00	0
97	0xff	-1
98	0x00	0
99	0x01	1
100	0x00	0
101	0xff	-1
102	0xff	-1
103	0x00	0
104	0x01	1
105	0x00	0
106	0x00	0
107	0xff	-1
108	0xff	-1
109	0x00	0
110	0x00	0
111	0x00	0
112	0x00	0
113	0x00	0
114	0x00	0
115	0x00	0
116	0x00	0
117	0xff	-1
118	0x00	0
119	0x00	0
120	0x00	0
121	0xff	-1
122	0x00	0
123	0x01	1
124	0x00	0
125	0x01	1
126	0xff	-1
127	0x00	0
128	0xff	-1
129	0x00	0
130	0x00	0
131	0x00	0
132	0x00	0
133	0xff	-1
134	0x00	0
135	0x00	0
136	0x00	0
137	0x00	0
138	0x00	0
139	0x00	0
140	0x00	0
141	0x00	0
142	0x00	0
143	0x01	1
144	0xff	-1
145	0x00	0
146	0x01	1
147	0x00	0
148	0x01	1
149	0x00	0
150	0x00	0
151	0xff	-1
152	0x00	0
153	0x00	0
154	0xff	-1
155	0x00	0
156	0x00	0
157	0x00	0
158	0x01	1
159	0x00	0
160	0xff	-1
161	0x00	0
162	0x01	1
163	0x00	0
164	0x00	0
165	0x00	0
166	0x00	0
167	0x00	0
168	0x00	0
169	0x00	0
170	0x00	0
171	0x01	1
172	0x00	0
173	0x00	0
174	0x00	0
175	0xff	-1
176	0x00	0
177	0xff	-1
178	0x01	1
179	0x00	0
180	0x00	0
181	0xff	-1
182	0x00	0
183	0x00	0
184	0x00	0
185	0x00	0
186	0xff	-1
187	0xff	-1
188	0x00	0
189	0xff	-1
190	0x01	1
191	0xff	-1
192	0x00	0
193	0x00	0
194	0x00	0
195	0x00	0
196	0x00	0
197	0x00	0
198	0x00	0
199	0xff	-1
200	0x00	0
201	0x00	0
202	0xff	-1
203	0x01	1
204	0xff	-1
205	0xff	-1
206	0xff	-1
207	0x00	0
208	0x00	0
209	0x00	0
210	0x01	1
211	0x00	0
212	0x00	0
213	0x00	0
214	0xff	-1
215	0xff	-1
216	0x01	1
217	0x01	1
218	0x00	0
219	0xff	-1
220	0x00	0
221	0x00	0
222	0x00	0
223	0x01	1
224	0x00	0
225	0x01	1
226	0xff	-1
227	0x00	0
228	0x00	0
229	0xff	-1
230	0x00	0
231	0x01	1
232	0x00	0
233	0x00	0
234	0x00	0
235	0x00	0
236	0x00	0
237	0x00	0
238	0x00	0
239	0x00	0
240	0x00	0
241	0x00	0
242	0x00	0
243	0x00	0
244	0x00	0
245	0x01	1
246	0xff	-1
247	0x00	0
248	0xff	-1
249	0x00	0
250	0x01	1
251	0x00	0
252	0x00	0
253	0x00	0
254	0x00	0
255	0x00	0

fc4_weight i1 [11, 128]
0	0x00	0
1	0x01	1
2	0x01	1
3	0x00	0
4	0x00	0
5	0x00	0
6	0x01	1
7	0x01	1
8	0x00	0
9	0x00	0
10	0x00	0
11	0x00	0
12	0x00	0
13	0x00	0
14	0x00	0
15	0x01	1
16	0x00	0
17	0x00	0
18	0x00	0
19	0x00	0
20	0x00	0
21	0x00	0
22	0x00	0
23	0x00	0
24	0x00	0
25	0x00	0
26	0xff	-1
27	0x00	0
28	0x01	1
29	0x00	0
30	0x00	0
31	0x00	0
32	0x00	0
33	0x00	0
34	0x00	0
35	0x00	0
36	0x00	0
37	0x00	0
38	0x01	1
39	0xff	-1
40	0x00	0
41	0x00	0
42	0x00	0
43	0x00	0
44	0x00	0
45	0x00	0
46	0x00	0
47	0xff	-1
48	0x00	0
49	0x00	0
50	0x00	0
51	0x00	0
52	0x00	0
53	0x00	0
54	0x00	0
55	0x00	0
56	0x00	0
57	0x00	0
58	0x00	0
59	0x00	0
60	0xff	-1
61	0x00	0
62	0xff	-1
63	0x00	0
64	0x00	0
65	0x00	0
66	0x01	1
67	0x00	0
68	0x00	0
69	0x00	0
70	0x00	0
71	0x00	0
72	0x01	1
73	0x00	0
74	0x00	0
75	0x00	0
76	0x00	0
77	0x00	0
78	0x00	0
79	0x00	0
80	0x01	1
81	0xff	-1
82	0x00	0
83	0xff	-1
84	0x00	0
85	0x00	0
86	0x00	0
87	0xff	-1
88	0x00	0
89	0x00	0
90	0x00	0
91	0x00	0
92	0x00	0
93	0x00	0
94	0x00	0
95	0x00	0
96	0x00	0
97	0x00	0
98	0xff	-1
99	0x00	0
100	0xff	-1
101	0xff	-1
102	0x01	1
103	0x00	0
104	0xff	-1
105	0x01	1
106	0x00	0
107	0x00	0
108	0x00	0
109	0x00	0
110	0x00	0
111	0x00	0
112	0xff	-1
113	0x00	0
114	0x00	0
115	0xff	-1
116	0x00	0
117	0x00	0
118	0x01	1
119	0xff	-1
120	0x00	0
121	0x01	1
122	0x01	1
123	0x00	0
124	0xff	-1
125	0x01	1
126	0x01	1
127	0xff	-1
128	0x00	0
129	0x00	0
130	0x00	0
131	0x01	1
132	0x00	0
133	0x00	0
134	0x00	0
135	0x00	0
136	0xff	-1
137	0xff	-1
138	0x00	0
139	0x00	0
140	0x00	0
141	0x00	0
142	0x00	0
143	0x00	0
144	0x01	1
145	0x01	1
146	0xff	-1
147	0x00	0
148	0x00	0
149	0x00	0
150	0x00	0
151	0x00	0
152	0x00	0
153	0x01	1
154	0x01	1
155	0x00	0
156	0x00	0
157	0x00	0
158	0xff	-1
159	0x00	0
160	0xff	-1
161	0x00	0
162	0x00	0
163	0x01	1
164	0x00	0
165	0x00	0
166	0x00	0
167	0x00	0
168	0xff	-1
169	0x00	0
170	0xff	-1
171	0x00	0
172	0x01	1
173	0x01	1
174	0x00	0
175	0xff	-1
176	0x00	0
177	0xff	-1
178	0x00	0
179	0x00	0
180	0x00	0
181	0x00	0
182	0x00	0
183	0xff	-1
184	0x00	0
185	0xff	-1
186	0xff	-1
187	0x00	0
188	0x00	0
189	0x01	1
190	0x00	0
191	0x00	0
192	0x01	1
193	0x00	0
194	0xff	-1
195	0xff	-1
196	0x01	1
197	0x00	0
198	0x01	1
199	0xff	-1
200	0x00	0
201	0x00	0
202	0x00	0
203	0xfe	-2
204	0x01	1
205	0x00	0
206	0x00	0
207	0x00	0
208	0x01	1
209	0x00	0
210	0x01	1
211	0x00	0
212	0x00	0
213	0x01	1
214	0x00	0
215	0x00	0
216	0x00	0
217	0x00	0
218	0xff	-1
219	0x00	0
220	0x00	0
221	0xff	-1
222	0xff	-1
223	0xff	-1
224	0x01	1
225	0x01	1
226	0x00	0
227	0x00	0
228	0x00	0
229	0xff	-1
230	0xff	-1
231	0xff	-1
232	0x00	0
233	0x00	0
234	0xff	-1
235	0x00	0
236	0x00	0
237	0x01	1
238	0x00	0
239	0x00	0
240	0x00	0
241	0xff	-1
242	0x00	0
243	0x00	0
244	0x01	1
245	0x00	0
246	0x00	0
247	0x00	0
248	0x00	0
249	0x00	0
250	0x00	0
251	0xff	-1
252	0x01	1
253	0x00	0
254	0x00	0
255	0x00	0
